data.pth (torch, 5015 bytes, 6 tensors)

l1.weight f4 [8, 54]
0	0xbe2feaed	-0.17179461
1	0x3ec5f209	0.3866122
2	0x3f0f8c09	0.5607305
3	0xbec51b15	-0.38497224
4	0x3cb90c55	0.022588888
5	0x3f43b96d	0.7645481
6	0x3ee5d97e	0.44892496
7	0x3f0c7d2d	0.54878503
8	0x3f2b29f9	0.6686092
9	0x3e9e7fa5	0.3095676
10	0xbe4594d1	-0.1929505
11	0x3db27dc3	0.087153934
12	0x3f1dc40a	0.61627257
13	0x3e655ec5	0.22399433
14	0x3ecc2124	0.39869034
15	0xbe0788d0	-0.13235784
16	0xbeb2dbfa	-0.34933454
17	0x3f46f211	0.77713114
18	0x3e8088f3	0.25104484
19	0xbf0ad7cd	-0.54235536
20	0xbe352856	-0.17691168
21	0xbf08873d	-0.5333136
22	0xbf0ae116	-0.54249704
23	0xbf10fb0c	-0.5663307
24	0x3e558a79	0.20853604
25	0xbe83cb8d	-0.25741234
26	0x3ee90f9d	0.45519724
27	0x3e8d03a1	0.2754183
28	0x3e922d5e	0.28550237
29	0x3e56b86a	0.20968786
30	0x3f201e5f	0.6254634
31	0x3e9a0842	0.30084425
32	0xbdf6e280	-0.1205492
33	0x3ea62c65	0.32455745
34	0x3f218c0b	0.63104314
35	0xbe977526	-0.29581565
36	0x3e87a08d	0.26489678
37	0x3f06f6b7	0.52720207
38	0x3e8f2786	0.2795984
39	0x3eee4f0e	0.4654469
40	0x3f1c0bd2	0.60955536
41	0x3ecf7174	0.40516245
42	0x3e8131c9	0.25233296
43	0x3e90229c	0.28151405
44	0x3f075a1f	0.5287189
45	0x3f08dba1	0.5346013
46	0xbf1e7aa3	-0.6190588
47	0xbe463755	-0.19357045
48	0x3ddd27fd	0.10798643
49	0x3eef7f1b	0.4677666
50	0xbe56a986	-0.20963106
51	0x3e41b8e3	0.18918185
52	0x3ee12834	0.43975985
53	0x3e95e602	0.29277045
54	0x3f22dcab	0.6361796
55	0x3ee243f6	0.44192475
56	0x3ee1cbbf	0.44100758
57	0xbda9b589	-0.08286578
58	0x3cfc7b73	0.030820584
59	0xbedc2de2	-0.43003756
60	0x3ec320d7	0.38110992
61	0x3ed81c54	0.42209113
62	0x3f0c3a9e	0.5477694
63	0x3ea32321	0.3186274
64	0xbde85e68	-0.113461316
65	0x3eba0f30	0.36339712
66	0x3ef8ed4d	0.48618546
67	0x3f03da99	0.5150543
68	0x3ee26118	0.44214702
69	0x3e1078ee	0.14108631
70	0xbea213bb	-0.31655678
71	0xbedc2a12	-0.43000847
72	0xbea3965a	-0.31950647
73	0xbed50362	-0.41604143
74	0x3ef7e02e	0.48413223
75	0xbed9fd74	-0.42576182
76	0xbed4b5db	-0.41544995
77	0xbedbc26f	-0.4292178
78	0x3f086fd7	0.53295654
79	0xbe2801da	-0.16406956
80	0xbe8b7345	-0.2723638
81	0x3e304ac5	0.17216022
82	0xbd084214	-0.033266142
83	0xbc10ca78	-0.008837335
84	0xbed7efb1	-0.42175058
85	0x3f2a7547	0.665852
86	0x3eb61ecf	0.3557038
87	0x3f1b7c6b	0.6073672
88	0x3f0b9e57	0.5453848
89	0x3e207a2f	0.1567161
90	0xb9d7341a	-0.00041046814
91	0x3f0ec779	0.5577312
92	0x3ea24482	0.31692892
93	0x3e5827f8	0.21108997
94	0xbed798b7	-0.421087
95	0xbeee77e5	-0.46575847
96	0x3ece1a84	0.40254605
97	0x3ec5293b	0.3850802
98	0x3f108aaa	0.56461585
99	0x3ee7180a	0.45135528
100	0x3f530b1f	0.82438844
101	0x3f0d9a16	0.5531324
102	0xbe3e78fb	-0.18600838
103	0xbee04536	-0.43802804
104	0x3e59609b	0.21228258
105	0xbec4c176	-0.3842885
106	0x3e843892	0.2582441
107	0x3ed38c7f	0.41318128
108	0xbe8d6c0e	-0.27621502
109	0x3e60613d	0.21912093
110	0xbf0c057e	-0.5469588
111	0x3eeaae82	0.45836264
112	0x3e68eb2c	0.22745961
113	0x3e9884b1	0.29788736
114	0xbe91c596	-0.2847106
115	0xbf2f690a	-0.6851965
116	0xbf2d77fc	-0.67761207
117	0xbf21e868	-0.6324525
118	0x3e9c683b	0.30548272
119	0x3f09bab0	0.5380049
120	0x3f0a1033	0.5393097
121	0x3ec5ee69	0.38658455
122	0x3ebb8b5b	0.36629757
123	0x3e977fd7	0.29589722
124	0x3eae0310	0.33986712
125	0x3eb655b1	0.35612252
126	0x3f255d94	0.64595914
127	0x3ec0ea2c	0.3767866
128	0xbe4e1981	-0.20126916
129	0x3f23731a	0.63847506
130	0x3f127cb1	0.57221514
131	0x3f391c5d	0.72308904
132	0x3e4f1a67	0.20224915
133	0x3eeb06da	0.45903665
134	0x3f47e41b	0.78082436
135	0x3ed883b9	0.42287996
136	0x3eeb8481	0.4599953
137	0x3e1a92bc	0.15095037
138	0x3e49c036	0.19702229
139	0x3ea8c2ef	0.32961223
140	0xbd5db4a5	-0.054127354
141	0xbf368050	-0.7128954
142	0x3f0a3c4a	0.53998244
143	0x3e935cb2	0.28781658
144	0x3f0111a3	0.50417536
145	0xbf0970b8	-0.5368762
146	0xbe64b4f1	-0.22334649
147	0xbe86e63d	-0.26347533
148	0x3e6f0616	0.23342165
149	0x3f4be744	0.7964976
150	0x3ea03b0b	0.31295046
151	0x3e82e18d	0.25562707
152	0x3e324f59	0.17413081
153	0x3eb007c8	0.34380937
154	0xbf2748b0	-0.6534529
155	0xbea52a88	-0.3225901
156	0x3effd328	0.49965787
157	0x3f5e0fde	0.8674296
158	0x3ea1fcc7	0.31638166
159	0x3f1189e5	0.56851035
160	0xbe5684b3	-0.20949058
161	0x3e40579e	0.18783423
162	0x3ef26294	0.47340834
163	0xbdc6f9ac	-0.0971559
164	0x3f16b46a	0.5886904
165	0xbe279cf3	-0.16368465
166	0xbd9d392d	-0.07676921
167	0x3eb8cdb7	0.36094448
168	0x3eb1e98b	0.34748492
169	0x3ea56656	0.3230464
170	0x3f1dfc0b	0.6171271
171	0x3e57c7c7	0.21072303
172	0xbe5fe067	-0.21862946
173	0x3f3bbc8d	0.7333458
174	0x3e8b00d6	0.27149075
175	0x3f2347e5	0.6378158
176	0xbdc59321	-0.09647203
177	0x3ee16569	0.44022682
178	0xbdf51c3b	-0.11968275
179	0x3efe6460	0.49685955
180	0xbe996763	-0.2996169
181	0xbead49a6	-0.33845252
182	0x3eb845fd	0.35990897
183	0xbead42be	-0.33839983
184	0xbead42e9	-0.3384011
185	0xbe978a00	-0.29597473
186	0x3f03ae60	0.5143795
187	0x3bb8b5aa	0.0056368904
188	0xbeb0fd4d	-0.34568253
189	0xbed59894	-0.4171797
190	0x3dc923c0	0.09821272
191	0xbe818d46	-0.25303096
192	0x3e198e7d	0.14995761
193	0x3f5c1d4c	0.85982203
194	0x3de7c6dc	0.11317226
195	0x3eb8db87	0.36104986
196	0xbda4928b	-0.08035763
197	0x3e858c39	0.26083544
198	0xbdc00ffb	-0.09378048
199	0x3f02aba6	0.51043165
200	0x3edb4680	0.42827225
201	0x3e999b32	0.30001217
202	0x3e43d12b	0.1912276
203	0xbedab0fc	-0.42713153
204	0x3ef9829e	0.48732466
205	0xbe4faf37	-0.20281683
206	0x3f5a8b62	0.8536893
207	0x3d1c3b42	0.03814245
208	0x3f3bd483	0.7337114
209	0x3e90126b	0.28139052
210	0xbe38c557	-0.18044029
211	0xbeae2cb8	-0.34018493
212	0x3e93e296	0.2888381
213	0xbdfa2c9d	-0.122155406
214	0x3ecd1c20	0.4006052
215	0x3e2162b5	0.1576031
216	0x3e595290	0.21222901
217	0x3f18de37	0.5971407
218	0xbedbe735	-0.42949834
219	0x3eef10d0	0.46692514
220	0x3e1db97f	0.15402792
221	0xbebbdb8e	-0.36690944
222	0xbe589c49	-0.21153368
223	0xbe610661	-0.2197509
224	0xbf0c111d	-0.5471361
225	0xbe972fdf	-0.2952871
226	0x3edc7ee4	0.4306556
227	0xbea271b3	-0.3172737
228	0xbd8bdbe8	-0.06829053
229	0xbec492f8	-0.38393378
230	0x3f0b4f45	0.5441783
231	0x3d05095f	0.03247964
232	0x3ec41e1c	0.38304222
233	0xbebd8561	-0.37015823
234	0xbe7443b4	-0.23853952
235	0x3f33290a	0.69984496
236	0x3ef47e25	0.4775249
237	0x3f0cb199	0.5495849
238	0x3f09ef3f	0.53880686
239	0x3ede05d4	0.43363822
240	0xbe75b0dd	-0.23993249
241	0x3ea43e0b	0.32078585
242	0xbe8ae635	-0.2712876
243	0x3ec388d2	0.38190323
244	0xbe50f425	-0.20405634
245	0x3f0b411d	0.5439623
246	0xbe94c003	-0.29052743
247	0xbe8245d1	-0.2544389
248	0x3e25fc20	0.1620946
249	0xbed141ca	-0.40870506
250	0x3edf21ca	0.43580467
251	0xbd99e02b	-0.0751346
252	0xbe305504	-0.17219931
253	0xbf035dc7	-0.5131497
254	0xbddad08e	-0.1068431
255	0xbe2983c7	-0.16554175

l1.bias f4 [8]
0	0x3f0ad2e2	0.5422803
1	0x3edc2d65	0.43003383
2	0x3f4ced73	0.8004982
3	0x3ead3601	0.33830264
4	0x3f5862f7	0.8452601
5	0x3f0a4ce7	0.54023594
6	0x3f31ac5a	0.6940361
7	0x3f6a8a5f	0.9161739

l2.weight f4 [8, 8]
0	0x3c9a7690	0.018855363
1	0xbe119aa1	-0.14219142
2	0x3f8d5c69	1.1043826
3	0xbfa13080	-1.2592926
4	0x3f430956	0.7618612
5	0x3f15baf2	0.5848838
6	0xbeebfaff	-0.46089932
7	0xbdda53b8	-0.10660499
8	0x3f311307	0.6916966
9	0xbf9183fd	-1.1368405
10	0x3f46768f	0.77524656
11	0xbed5a7ca	-0.41729575
12	0x3f458ba8	0.77166224
13	0xbe83cee9	-0.25743797
14	0x3fb75503	1.4322819
15	0x3f015c31	0.505313
16	0xbf870ff4	-1.0551744
17	0x3f17548a	0.5911337
18	0x3d8bdfdd	0.06829808
19	0xbec54b64	-0.3853408
20	0x3f9c7e24	1.2225995
21	0x3f91bf98	1.1386595
22	0xbf39043f	-0.72272104
23	0x3fb8d5d7	1.4440259
24	0xbe867d62	-0.26267534
25	0x3cdb4e10	0.026770622
26	0xbdfa580c	-0.12223825
27	0xbe764e50	-0.24053311
28	0xbe1bf331	-0.15229489
29	0x3de1aa24	0.1101878
30	0xbe88764a	-0.26652747
31	0xbd9a7e94	-0.07543674
32	0x3eec690a	0.46173888
33	0xbf5b3bca	-0.85638106
34	0x3f9b2b1e	1.2122533
35	0xbf6bb7f1	-0.9207755
36	0x3f1c7ce9	0.611281
37	0xbd9d59ef	-0.07683169
38	0x3f2d3570	0.67659664
39	0x3ed6a25e	0.4192075
40	0x3eb32b05	0.3499376
41	0x3e3fb177	0.18720041
42	0x3fa2ef07	1.2729195
43	0x3f0bddf0	0.54635525
44	0xbd1dbf6a	-0.038512625
45	0xbea829da	-0.3284443
46	0xbf3c11ff	-0.7346496
47	0xbedf5c0e	-0.4362492
48	0x3f924bcb	1.142938
49	0x3f9c10da	1.2192643
50	0xbe6c1b61	-0.23057319
51	0x3f7064d1	0.93903834
52	0xbef2502e	-0.47326797
53	0x3f875fee	1.057615
54	0x3f9a33a4	1.204701
55	0x3ea3493a	0.31891805
56	0xbcce8b20	-0.025212824
57	0xbe3fe871	-0.18741013
58	0xbe8b36df	-0.271903
59	0x3e9033b1	0.28164437
60	0x3e3a1d96	0.18175349
61	0xbd80b760	-0.06284976
62	0xbddcf260	-0.10788417
63	0xbe2cd4c9	-0.16878046

l2.bias f4 [8]
0	0x3bbd8141	0.0057832305
1	0x3f24e5e0	0.6441326
2	0x3f2e8089	0.6816488
3	0xbea4ce71	-0.32188752
4	0x3f186efa	0.59544337
5	0x3f178bef	0.59197897
6	0x3cede532	0.029039953
7	0xbe87e47e	-0.26541513

l3.weight f4 [7, 8]
0	0xbf5b8f6f	-0.8576574
1	0xbf59699c	-0.8492677
2	0xbeeabd2d	-0.45847455
3	0xbc811a40	-0.015759587
4	0xbf2487cc	-0.6426971
5	0x3f390535	0.7227357
6	0x3e618256	0.22022375
7	0xbe996b35	-0.29964605
8	0x3e37ae10	0.17937493
9	0x3dcf64d2	0.10126652
10	0x3e459f98	0.19299161
11	0xbe5a7058	-0.21331918
12	0x3e70c7f3	0.23513775
13	0xbfe02ca2	-1.7513621
14	0xbd9117ff	-0.07084655
15	0xbe181cb6	-0.14854702
16	0xbfaebdf4	-1.3651719
17	0x3f1874fb	0.595535
18	0xbf86741b	-1.0504183
19	0xbeae8b1f	-0.34090516
20	0x3f0fb7f2	0.56140053
21	0xbeb8d795	-0.36101976
22	0x3dce18b6	0.10063307
23	0x3e2aca02	0.16678622
24	0x3f2455b0	0.6419325
25	0x3dde90c7	0.10867458
26	0x3f4dcfaf	0.80395025
27	0xbe4d9293	-0.20075445
28	0x3eec384c	0.461367
29	0xbf178606	-0.5918888
30	0xbfc5c92e	-1.545202
31	0xbe8cb89a	-0.2748459
32	0x3f7a6fdb	0.9782693
33	0xbe276c6b	-0.16349952
34	0xbf878336	-1.0586917
35	0x3ea08137	0.31348583
36	0x3ecdd91d	0.40204707
37	0x3ecb49b7	0.39704677
38	0xbf2b8753	-0.67003363
39	0xbea93227	-0.33046076
40	0xbed94dc5	-0.42442146
41	0xbeaffc56	-0.34372205
42	0xbf3e2c61	-0.74286467
43	0x3e77d8d2	0.24203804
44	0xbf71298a	-0.9420401
45	0xbf936e45	-1.1518027
46	0x3f74d907	0.9564366
47	0x3de0ee18	0.10982913
48	0xbf88b7cc	-1.068109
49	0xbf1a59ea	-0.6029345
50	0x3f76bd02	0.96382153
51	0x3e1df186	0.15424165
52	0xbf1f12f6	-0.6213831
53	0xbf75f1d3	-0.9607212
54	0x3dd3733b	0.10324713
55	0xbe8688fe	-0.26276392

l3.bias f4 [7]
0	0x3ecd555e	0.40104192
1	0xbf2fff0e	-0.6874856
2	0xbd903e72	-0.070431605
3	0xbd100a2b	-0.035165947
4	0xbe662f17	-0.22478901
5	0xbeacf2f5	-0.33779112
6	0x3e0c26d4	0.13686687
